…
/usr/local/lib/python3.5/dist-packages/h5py/__init__.py:36: FutureWarning: Conversion of the second argument of issubdtype from `float` to `np.floating` is deprecated. In future, it will be treated as `np.float64 == np.dtype(float).type`.
  from ._conv import register_converters as _register_converters
Using TensorFlow backend.
Found 30000 images belonging to 6 classes.
{'towerServer': 5, 'printer': 1, 'rackServer': 2, 'router': 3, 'cabinet': 0, 'switch': 4}
Found 6000 images belonging to 6 classes.
{'towerServer': 5, 'printer': 1, 'rackServer': 2, 'router': 3, 'cabinet': 0, 'switch': 4}
_________________________________________________________________
Layer (type)                 Output Shape              Param #   
=================================================================
conv2d_1 (Conv2D)            (None, 148, 148, 32)      896       
_________________________________________________________________
activation_1 (Activation)    (None, 148, 148, 32)      0         
_________________________________________________________________
max_pooling2d_1 (MaxPooling2 (None, 74, 74, 32)        0         
_________________________________________________________________
conv2d_2 (Conv2D)            (None, 72, 72, 32)        9248      
_________________________________________________________________
activation_2 (Activation)    (None, 72, 72, 32)        0         
_________________________________________________________________
max_pooling2d_2 (MaxPooling2 (None, 36, 36, 32)        0         
_________________________________________________________________
conv2d_3 (Conv2D)            (None, 34, 34, 64)        18496     
_________________________________________________________________
activation_3 (Activation)    (None, 34, 34, 64)        0         
_________________________________________________________________
max_pooling2d_3 (MaxPooling2 (None, 17, 17, 64)        0         
_________________________________________________________________
flatten_1 (Flatten)          (None, 18496)             0         
_________________________________________________________________
dense_1 (Dense)              (None, 64)                1183808   
_________________________________________________________________
activation_4 (Activation)    (None, 64)                0         
_________________________________________________________________
dropout_1 (Dropout)          (None, 64)                0         
_________________________________________________________________
dense_2 (Dense)              (None, 6)                 390       
_________________________________________________________________
activation_5 (Activation)    (None, 6)                 0         
=================================================================
Total params: 1,212,838
Trainable params: 1,212,838
Non-trainable params: 0
...] - ETA: 4:03 - loss: 0.5267 - acc: 0.8023
197/468 [===========>..................] - ETA: 4:02 - loss: 0.5261 - acc: 0.8024
198/468 [===========>..................] - ETA: 4:01 - loss: 0.5272 - acc: 0.8021
199/468 [===========>..................] - ETA: 3:59 - loss: 0.5285 - acc: 0.8016
…
